…
.conv2 = nn.Conv2d(6, 16, 5) # an affine operation: y = Wx + b self.fc1 = nn.Linear(16 * 5 * 5, 120) self.fc2 = nn.Linear(120, 84) self.fc3 = nn.Linear(84, 10) def forward(self, x): # 2x2 Max pooling x = F.max_pool2d(F.relu(self.conv1(x)), (2, 2)) # 如果是方阵,则可以只使用一个数字进行定义 x = F.max_pool2d(F.relu(self.conv2(x)), 2) x = x.view(-1, self.num_flat_features(x)) x = F.relu(self.fc1(x)) x = F.relu(self.fc2(x)) x = self.fc3(x) return x def num_flat_features(self, x): size = x.size()[1:] # 除去批处理维度的其他所有维度 num_features = 1 for s in size: num_features *= s return num_featuresnet = Net()print(net) Net( (conv1): Conv2d(1, 6, kernel_size=(5, 5), stride=(1, 1)) (conv2): Conv2d(6, 16, kernel_size=(5, 5), stride=(1, 1)) (fc1): Linear(in_features=400, out_features=120, bias=True) (fc2): Linear(in_features=120, out_features=84, bias=True) (fc3): Linear(in_features=84, out_features=10, bias=True) ) 我们只需要定义 forward 函数，backward函数会在使用autograd时自动定义，backward函数用来计算导数。我们可以在 forward 函数中使用任何针对张量的操作和计算。一个模型的可学习参数可以通过net.parameters()返回。 123params = list(net.parameters())print(len(params))print(params[0].size()) # conv1的权重 尝试随机输入 123456input = torch.randn(1, 1, 32, 32)out = net(input)print(out)# 清零所有参数的梯度缓存，然后进行随机梯度的反向传播：net.zero_grad()out.backward(torch.ran
…
窗口。除了最后的卷积层外，进一步增大了输出通道数。 # 前两个卷积层后不使用池化层来减小输入的高和宽 nn.Conv2d(256, 384, 3, 1, 1), nn.ReLU(), nn.Conv2d(384, 384, 3, 1, 1), nn.ReLU(), nn.Conv2d(384, 256, 3, 1, 1), nn.ReLU(), nn.MaxPool2d(3, 2) ) # 这里全连接层的输出个数比LeNet中的大数倍。使用丢弃层来缓解过拟合 self.fc = nn.Sequential( nn.Linear(256*5*5, 4096), nn.ReLU(), nn.Dropout(0.5), nn.Linear(4096, 4096), nn.ReLU(), nn.Dropout(0.5), # 输出层。由于这里使用Fashion-MNIST，所以用类别数为10，而非论文中的1000 nn.Linear(4096, 10), ) def forward(self, img): feature = self.conv(img) output = self.fc(feature.view(img.shape[0], -1)) return outputnet = AlexNet()print(net) AlexNet( (conv): Sequential( (0): Conv2d(1, 96, kernel_size=(11, 11), stride=(4, 4)) (1): ReLU() (2): MaxPool2d(kernel_size=3, stride=2, padding=0, dilation=1, ceil_mode=False) (3): Conv2d(96, 256, kernel_size=(5, 5), stride=(1, 1), padding=(2, 2)) (4): ReLU() (5): MaxPool2d(kernel_size=3, stride=2, padding=0, dilation=1, ceil_mode=False) (6): Conv2d(256, 384, kernel_size=(3, 3), stride=(1, 1), padding=(1, 1)) (7): ReLU() (8): Conv2d(384, 384, kernel_size=(3, 3), stride=(1, 1), padding=(1, 1)) (9): ReLU() (10): Conv2d(384, 256, kernel_size=(3, 3), stride=(1, 1), padding=(1, 1)) (11): ReLU() (12): MaxPool2d(kernel_size=3, stride=2, padding=0, dilation=1, ceil_mode=False) ) (fc): Sequential( (0): Linear(in_features=6400, out_features=4096, bias=True) (1): ReLU() (2): Dropout(p=0.5) (3): Linear(in_features=4096, out_features=4096, bias=True) (4): ReLU() (5): Dropout(p=0.5) (6): Linear(in_features=4096, out_features=10, bias=True) ) ) 四、 模型初始化 torch.nn.init使用通常使用isinstance来进行判断模块12345678import torchimport torch.nn as nnconv = nn.Conv2d(1,3,3)linear = nn.Linear(10,1)isinstance(conv,nn.Conv2d)isinstance(linear,nn.Conv2d) 查看不同初始化参数1234# 查看随机初始化的conv参数conv.weight.data# 查看linear的参数linear.weight.data 对不同类型层进行初始化123456# 对conv进行kaiming初始化torch.nn.init.kaiming_normal_(conv.weight.data)co
…
